…
12 Feb 01:30    INFO =========1/1: Parameters:['seed', 'lambda_weight', 'cl_loss', 'learning_rate', 'n_layers', 'knn_k', 'sim_weight']=(999, 0.01, 0.01, 0.001, 1, 10, 0.1)=======
/home/hun/MMRec_AlignRec/src/models/anchorrec_ablation_proj.py:229: UserWarning: torch.sparse.SparseTensor(indices, values, shape, *, device=) is deprecated.  Please use torch.sparse_coo_tensor(indices, values, shape, dtype=, device=). (Triggered internally at ../torch/csrc/utils/tensor_new.cpp:641.)
  return torch.sparse.FloatTensor(indices, values, shape)
12 Feb 01:30    INFO ANCHORREC_ABLATION_PROJ(
  (reg_loss): EmbLoss()
  (mask_dropout): Dropout(p=0.2, inplace=False)
  (user_embedding): Embedding(24303, 64)
  (item_id_embedding): Embedding(10672, 64)
  (W_id_i): Sequential(
    (0): Linear(in_features=64, out_features=64, bias=True)
    (1): ReLU()
    (2): Linear(in_features=64, out_features=64, bias=True)
  )
  (W_mm_i): Sequential(
    (0): Linear(in_features=64, out_features=64, bias=True)
    (1): ReLU()
    (2): Linear(in_features=64, out_features=64, bias=True)
  )
  (W_v): Sequential(
    (0): Linear(in_features=4096, out_features=64, bias=True)
    (1): ReLU()
    (2): Linear(in_features=64, out_features=64, bias=True)
  )
  (W_t): Sequential(
    (0): Linear(in_features=384, out_features=64, bias=True)
    (1): ReLU()
    (2): Linear(in_features=64, out_features=64, bias=True)
  )
  (D_mm2id): Sequential(
    (0): Linear(in_features=64, out_features=64, bias=True)
    (1): ReLU()
    (2): Linear(in_features=64, out_features=64, bias=True)
  )
  (mm_embedding): Embedding(10672, 768)
  (mm_trs): Linear(in_features=768, out_features=64, bias=True)
  (t_embedding): Embedding(10672, 384)
  (t_trs): Linear(in_features=384, out_features=64, bias=True)
  (v_embedding): Embedding(10672, 4096)
  (v_trs): Linear(in_features=4096, out_features=64, bias=True)
  (softmax): Softmax(dim=-1)
  (query_common): Sequential(
    (0): Linear(in_features=64, out_features=64, bias=True)
    (1): Tanh()
    (2): Linear(in_features=64, out_features=1, bias=False)
  )
  (gate_mm_prefer): Sequential(
    (0): Linear(in_features=64, out_features=64, bias=True)
    (1): Sigmoid()
  )
  (gate_v): Sequential(
    (0): Linear(in_features=64, out_features=64, bias=True)
    (1): Sigmoid()
  )
  (gate_t): Sequential(
    (0): Linear(in_features=64, out_features=64, bias=True)
    (1): Sigmoid()
  )
  (gate_mm): Sequential(
    (0): Linear(in_features=64, out_features=64, bias=True)
    (1): Sigmoid()
  )
)
Trainable parameters: 58922112
12 Feb 01:30    INFO epoch 0 training [time: 4.46s, train loss: 71.7237]
12 Feb 01:30    INFO epoch 0 evaluating [time: 4.45s, valid_score: 0.037500]
12 Feb 01:30    INFO valid result: 
recall@5: 0.0140    recall@10: 0.0230    recall@20: 0.0375    recall@30: 0.0498    recall@40: 0.0609    recall@50: 0.0703    ndcg@5: 0.0093    ndcg@10: 0.0123    ndcg@20: 0.0160    ndcg@30: 0.0186    ndcg@40: 0.0208    ndcg@50: 0.0226    
…
